neural_network_fenghua.pth (torch, 2207 bytes, 3 tensors)

0.weight f4 [10, 15]
00000000: c060 423c d411 c83d 69cf 45be 6257 18be
00000010: aca6 efbd 3a1d a1bd 42a7 14be 5c36 af3d
00000020: 0cc5 9fbd 1834 7a3d 202c 353d 3842 cc3d
00000030: b9d7 57be 881c a53d 7cd8 1e3e c099 8f3d
00000040: aee9 6f3e 1067 643d 1812 713e d840 603e
00000050: 1a5d 49be d2c8 90bd 2692 0bbe b2a6 95bd
00000060: ce54 733e bece 643e baa3 3bbe 60a5 7a3d
00000070: a0d1 40be 68a7 11be eaaf 8bbd 5b8c 46be
00000080: f4ec f03d 6248 2d3e 5074 193d b114 2abe
00000090: 3a49 54be 8035 5ebe 6519 05be 928e 3ebe
000000a0: 98fa 773d 0c80 9f3d 76a9 7f3e 64f3 323e
000000b0: acc7 d63d 5c1e 2ebe ae7f 213e f025 e5bc
000000c0: fc51 243e b0ad d53c 4ca2 55bd aa6b 20be
000000d0: cadb 283e 081e 3cbd 74b7 3dbe 4048 c13d
000000e0: 6064 0fbc 9010 5abc ce0a abbd 24fe 2a3e
000000f0: 0434 fbbd 04a3 1fbd 8078 633d 9408 72be
00000100: 002c 5e3b 00d6 9c3c f4c4 a0bd 28ef 753e
00000110: fa94 5d3e 9470 77bd d4a5 b9bd ba86 d7bd
00000120: 60cc 373d 2079 23be 7454 2abe 563a 4ebe
00000130: f807 3fbd bc79 46be 30a0 ac3c 1c28 47bd
00000140: 7c27 0abe 5ca3 1cbe f0ea 15bc 51af 48be
00000150: ade9 57be 5032 a9bd a4d2 eb3d b362 0dbe
00000160: ef59 823e 744a 1dbe 24db 4dbd e216 69be
00000170: a864 2f3e 4408 bc3d 885c 3e3e b8d4 633d
00000180: 7449 c43d 80d3 303d ea0b 213e ba45 053e
00000190: 5df5 7abe f4eb 1cbe 22cb 24be 7436 a03d
000001a0: 244e 223e 990a 0fbe 2018 1dbd 65b5 0dbe
000001b0: eece 38be f8a5 ecbc 7ff1 55be 3a4c 143e
000001c0: b066 313e 3c81 4d3e 4077 c4bb f81b e9bc
000001d0: 4ff8 37be fe77 053e c0ec edbd 58ef 323d
000001e0: 7a00 8cbd 8600 273e 6843 cb3d 16cb 0c3e
000001f0: d023 9abc 4c69 f53d b4a2 c5bd ac83 65bd
00000200: f824 5b3e a976 7ebe 40d3 8a3d a335 4bbe
00000210: f46b 1e3e 064a 163e 484e 69bd 287a 3ebd
00000220: 6005 513d 6018 fa3c c027 0e3e 88f4 613e
00000230: f47f bcbd 102e ab3d 00c7 88ba 009c 2cba
00000240: 4ae2 89bd 7268 88bd 5ce3 53bd e94d 833e
00000250: 801b f03d 7835 a1bc
0.011863887 0.097690254 -0.19317402 -0.14877084 -0.11701712 -0.07866903 -0.14516929 0.0855529
-0.078012556 0.061084837 0.044231534 0.09973568 -0.21078385 0.080620825 0.1551227 0.07011747
0.23428985 0.05576235 0.23542058 0.21899736 -0.19664422 -0.070695534 -0.1362997 -0.07307185
0.23762819 0.22344491 -0.18324175 0.06119287 -0.18829966 -0.14224017 -0.06820662 -0.19389479
0.11763945 0.16922143 0.03746444 -0.16609456 -0.20731059 -0.21700096 -0.12997968 -0.18609074
0.06054172 0.07788095 0.24966988 0.17475659 0.10487303 -0.17003769 0.15771362 -0.027972192
0.160469 0.026083797 -0.05215673 -0.1566607 0.16490093 -0.045927078 -0.18527013 0.09437609
-0.008751959 -0.013309613 -0.0835167 0.1669851 -0.122657806 -0.038973823 0.05553484 -0.23636085
0.0033900738 0.019145012 -0.07850066 0.24017012 0.21638861 -0.060410097 -0.09064832 -0.10523744
0.04487264 -0.15964174 -0.16633779 -0.20139441 -0.04663846 -0.19382375 0.021072477 -0.048622236
-0.13491625 -0.15296692 -0.009150252 -0.19598128 -0.21085234 -0.082615495 0.11514786 -0.13807182
0.2545924 -0.15360433 -0.050257817 -0.22762635 0.17128241 0.09181264 0.18589985 0.055622786
0.095843226 0.043170452 0.15727201 0.1301488 -0.24507661 -0.15324384 -0.16093114 0.07822886
0.15850121 -0.13968886 -0.038353086 -0.13838728 -0.18047687 -0.028887734 -0.20892905 0.14482203
0.17324328 0.2006883 -0.005995661 -0.02845572 -0.17965816 0.13034055 -0.11617422 0.043685287
-0.068360284 0.16308793 0.09924966 0.13749346 -0.018815905 0.119829744 -0.09650174 -0.056033775
0.21400821 -0.24849953 0.06778574 -0.1984468 0.15470868 0.14676675 -0.05695942 -0.046503216
0.051030517 0.030529201 0.13882351 0.22065938 -0.092040926 0.08358395 -0.0010435283 -0.0006584525
-0.06732614 -0.06660546 -0.0517305 0.25645378 0.11723995 -0.019678816

0.bias f4 [10]
00000000: 9c97 25be c4c1 c13d 94b8 9e3d 6cad 03be
00000010: 6046 a63c fa59 723e 68d6 003e 8bb6 4fbe
00000020: 4e23 80be 0c80 f9bd
-0.16171116 0.09460786 0.07750049 -0.12859124 0.02029723 0.23667136 0.1258179 -0.20284478
-0.25026935 -0.12182626

2.weight f4 [1, 10]
00000000: 0079 f83c 6048 a53d 0ecb 563e df7a 22be
00000010: e095 d23c 4c12 aa3d c88d cdbd d02f ff3c
00000020: 4827 903d f65a 5cbe
0.030331135 0.08070445 0.20975897 -0.15867184 0.025706232 0.08304271 -0.10036808 0.031150728
0.07038742 -0.21519074
