neural_network_fenghua.pth (torch, 2207 bytes, 3 tensors)

0.weight f4 [10, 15]
0.15865654 0.0039985776 -0.11776054 0.08288875 0.02045381 -0.20596074 -0.053542897 0.12730715
0.23828521 -0.13399318 -0.042803034 0.0131034255 0.2503796 -0.20881703 0.23599723 0.01609227
0.15668964 -0.04468903 0.029485255 0.061418623 -0.000795722 0.06193182 0.14188787 0.051020414
-0.07437953 0.15835777 -0.24859832 0.21079111 -0.08885202 -0.14844163 -0.17092925 0.14349166
0.03336543 -0.22008419 -0.18154052 0.15148705 -0.23417336 0.1881809 -0.09534672 0.15489888
-0.21599247 0.046652198 -0.21939981 0.08151716 0.07981601 0.21574551 0.091109425 0.052420735
-0.13956226 -0.10827808 -0.24356012 -0.17914614 -0.13487802 -0.10945575 0.0028415024 -0.24491507
0.10316092 -0.050710887 0.16899276 -0.032622248 0.003797084 -0.2536673 -0.06037569 0.022685021
0.16772723 0.0062032044 -0.19344965 0.18713439 0.1805023 -0.0022676587 0.13370016 0.073903054
0.18851289 -0.016671762 -0.07181315 0.078109354 0.051595747 -0.11524722 -0.15312803 -0.02875249
-0.21091452 -0.1678049 -0.13363364 -0.15461957 -0.20913948 0.11168206 0.04896152 0.22497895
-0.009436533 -0.21650143 0.22613433 0.024333835 0.20341519 0.059481323 -0.04212159 0.07376078
-0.05932872 -0.19149718 0.18049946 -0.01719758 -0.2567073 -0.027555004 0.0453192 -0.07754026
-0.03885603 0.19674566 -0.020885542 0.10855597 0.099143684 0.25798544 0.067753285 -0.08174841
-0.2046148 -0.04306601 0.13892028 -0.02381201 0.11613914 0.07681778 0.19005316 -0.1046627
0.02500087 0.22794172 0.014308423 -0.07795991 0.21435043 -0.16072331 -0.2126117 0.02647373
-0.10760151 0.03993082 -0.20307517 -0.18809429 0.022629201 -0.24108337 -0.1894936 0.19759858
0.17806607 -0.13872752 0.107970655 0.064822644 0.0027950704 0.15973297 -0.07838261 -0.0055309236
0.0051657557 0.0065517426 -0.028260693 -0.11007272 -0.06856029 -0.10417692
00000000: dc76 223e 8006 833b 702c f1bd 94c1 a93d
00000010: c08e a73c 5fe7 52be cc4f 5bbd ce5c 023e
00000020: 0a01 743e 8235 09be 3c52 2fbd c0af 563c
00000030: c131 803e 22d4 55be 42a9 713e f0d3 833c
00000040: 4073 203e d80b 37bd 108b f13c 1892 7b3d
00000050: 0098 50ba 38ac 7d3d 0e4b 113e c8fa 503d
00000060: 4c54 98bd 8a28 223e 8f90 7ebe a0d9 573e
00000070: 0cf8 b5bd 1501 18be 1408 2fbe 7aef 123e
00000080: 30aa 083d c05d 61be c2e5 39be 6c1f 1b3e
00000090: 24cb 6fbe 7eb2 403e 2445 c3bd d09d 1e3e
000000a0: 212d 5dbe 6016 3f3d 58aa 60be 78f2 a63d
000000b0: 9476 a33d 64ec 5c3e 9497 ba3d 20b7 563d
000000c0: 69e9 0ebe e6c0 ddbd d367 79be 1672 37be
000000d0: 771d 0abe 562a e0bd 8038 3a3b 04cb 7abe
000000e0: 0846 d33d 38b6 4fbd 700c 2d3e e89e 05bd
000000f0: 80d8 783b aee0 81be 804c 77bd f0d5 b93c
00000100: b0c0 2b3e 4044 cb3b aa17 46be 28a0 3f3e
00000110: 98d5 383e 009d 14bb b2e8 083e 7c5a 973d
00000120: 8609 413e 3893 88bc c612 93bd ccf7 9f3d
00000130: 1056 533d bc06 ecbd 98cd 1cbe 588a ebbc
00000140: faf9 57be 0cd5 2bbe 42d7 08be 9854 1ebe
00000150: a928 56be 90b9 e43d e08b 483d e260 663e
00000160: b09b 1abc 8db2 5dbe c28f 673e c057 c73c
00000170: 124c 503e b0a2 733d b087 2cbd e40f 973d
00000180: ac02 73bd d617 44be dad4 383e f0e1 8cbc
00000190: 246f 83be 08bb e1bc a0a0 393d 6ecd 9ebd
000001a0: 8027 1fbd b277 493e 2818 abbc 9852 de3d
000001b0: d80b cb3d ab16 843e 3cc2 8a3d b66b a7bd
000001c0: 8b86 51be fc65 30bd 1e41 0e3e 6811 c3bc
000001d0: 5cda ed3d a452 9d3d 4c9d 423e 6659 d6bd
000001e0: a0ce cc3c 8e69 693e e06d 6a3c 72a9 9fbd
000001f0: ae7e 5b3e a794 24be e2b6 59be 70df d83c
00000200: 2e5e dcbd 808e 233d f0f2 4fbe ca9b 40be
00000210: e060 b93c 8fde 76be 9c0a 42be 4857 4a3e
00000220: f456 363e 960e 0ebe b81f dd3d bcc1 843d
00000230: 802d 373b 0a91 233e 1087 a0bd c03c b5bb
00000240: 8045 a93b 00b0 d63b f882 e7bc ce6d e1bd
00000250: 5669 8cbd b65a d5bd

0.bias f4 [10]
-0.025128454 -0.02645427 0.21245793 -0.13967356 -0.16347355 -0.22945113 0.119968176 0.006649673
0.08494151 0.25489107
00000000: 30da cdbc a0b6 d8bc 928e 593e 9606 0fbe
00000010: 9c65 27be 3df5 6abe e0b1 f53d 80e5 d93b
00000020: d0f5 ad3d 1581 823e

2.weight f4 [1, 10]
0.040504277 0.21052328 -0.0016910732 -0.07199459 -0.2237547 -0.2797694 0.22955003 -0.10315527
-0.1286965 0.25317094
00000000: d0e7 253d 6a93 573e 00a7 ddba e671 93bd
00000010: f41f 65be ef3d 8fbe 2a0f 6b3e 1243 d3bd
00000020: 04c9 03be 9f9f 813e
