neural_network_fenghua.pth (torch, 2207 bytes, 3 tensors)

0.weight f4 [10, 15]
00000000: 5c07 50bd 68df 503e ea4a 11be 153a 803e
00000010: c057 c6bb f244 27be a3ae 04be 9427 f53d
00000020: e0e5 6c3e 4a22 c7bd 227f 18be 506c d6bc
00000030: ce0f 0ebe 9056 bc3d 21c7 52be 7ce9 303e
00000040: b6cb 4a3e 0056 763b 4211 82be 5d8f 08be
00000050: b8ed 033d 1c6f a13d a376 3bbe 600a bcbd
00000060: 9a25 6dbe de1d 3abe bcee 02bd cab1 7a3e
00000070: d48b ec3d 2256 473e f80d 82bc 70ac 443d
00000080: a88d 66bd f4f0 b2bd 1252 47be 862b 6b3e
00000090: 468e 74be 9340 72be f073 c33c ec69 71be
000000a0: d20f 0b3e d46c 2dbe e01c 833d 0ef5 7b3e
000000b0: 089c 063e c883 26be 8c50 40be 6272 033e
000000c0: 7040 793d 7c20 44be b015 8f3d 9846 59bd
000000d0: b0a7 2c3e 1adc 793e 906c 70be 58e3 11bd
000000e0: 44a9 9b3d acfc 173e 82fd 493e d10c 71be
000000f0: 8e9a 45be 289f 80be a6e0 7e3e 7025 ce3c
00000100: a006 d1bd a048 1b3e 7867 7ebd 0073 833d
00000110: 4cf6 dd3d 3631 f5bd 08cb 633d 8263 4b3e
00000120: a0b3 2a3c bfbc 07be 68b6 57be f8ac 3f3e
00000130: c095 1fbc 6068 2a3d ecad 893d 6a16 c8bd
00000140: 9851 4c3d b4a0 9cbd 6a84 6a3e 62d7 59be
00000150: f862 c53d d661 f8bd e017 473d 2812 91bc
00000160: e433 263e 1c8e c43d ec9d 8a3d 33bb 803e
00000170: ba9f eabd 8808 33be eef7 5ebe baf8 603e
00000180: 4879 403e 0078 2cba fb8c 30be 80df 683c
00000190: 3cde a2bd 6289 0dbe 063a 0bbe faad 243e
000001a0: 1851 e63d b04b a03c 027d a8bd 2800 683d
000001b0: 1c33 b13d 00ab 8b3b beb2 3c3e b529 31be
000001c0: 8ef3 4abe 7cb0 3cbe e8f6 813d eedf 003e
000001d0: 9f2e 2dbe 10f1 653e 7bd6 21be 20b5 03bc
000001e0: 1283 2abe daa0 39be 186e 2cbd b049 b93d
000001f0: 6faf 833e 586a 19be 22bc bdbd 32dc 23be
00000200: ac6d 993d b25b 7cbe b845 1a3d a684 debd
00000210: 5621 6f3e 94d1 1f3e 7231 6bbe aaa0 57be
00000220: 4045 03bc ba5d 2d3e 9aee 56be f292 7a3e
00000230: 08a8 253d ca6b b3bd b88c 033e c4eb a1bd
00000240: f835 efbd c007 f43c c086 0b3d c281 0fbe
00000250: aedf 06be 287b 9e3d
-0.05078827 0.20397723 -0.14188734 0.25044313 -0.006052941 -0.16334894 -0.12957244 0.119704396
0.23134565 -0.09723337 -0.14892247 -0.026174694 -0.13873217 0.09196198 -0.20583774 0.17276567
0.19804272 0.003758788 -0.25403792 -0.13335939 0.03220913 0.078825206 -0.18306975 -0.091816664
-0.23158875 -0.18175456 -0.031965956 0.24481884 0.115501076 0.19466451 -0.015875801 0.04801601
-0.056287438 -0.087373644 -0.19464901 0.22965822 -0.23882398 -0.23657446 0.023858994 -0.23575562
0.13580254 -0.16936046 0.06401992 0.246052 0.13145459 -0.16261208 -0.18780726 0.12836602
0.060852468 -0.19153017 0.069865584 -0.05304584 0.16860843 0.24400368 -0.23478913 -0.035617203
0.07600644 0.1484248 0.19725612 -0.23540045 -0.19297239 -0.25121427 0.24890384 0.025164336
-0.10206342 0.15164423 -0.062110394 0.06418419 0.10837993 -0.11972277 0.055613548 0.19862178
0.0104188025 -0.13255595 -0.21065676 0.18718326 -0.009740293 0.041603446 0.06722626 -0.097699
0.0498825 -0.07647839 0.22902074 -0.21273568 0.096380174 -0.12128036 0.048606753 -0.017708853
0.16230732 0.09597418 0.067684025 0.25142822 -0.11456247 -0.17483723 -0.21774265 0.21969882
0.18796265 -0.00065791607 -0.1724128 0.014213443 -0.07952544 -0.13821939 -0.13596353 0.16081992
0.11245936 0.01956734 -0.08226968 0.056640774 0.086523265 0.004262328 0.1842756 -0.17301066
-0.19819471 -0.18426698 0.06345922 0.12585422 -0.16912316 0.2245524 -0.15804474 -0.008038789
-0.16651562 -0.18127766 -0.04209718 0.09047258 0.25719783 -0.14981973 -0.09264399 -0.16001967
0.074916214 -0.24644354 0.037664145 -0.108651444 0.2335256 0.15607291 -0.2296808 -0.21057382
-0.008012116 0.16930285 -0.20989457 0.24470118 0.04044345 -0.087607935 0.12846649 -0.07906297
-0.116802156 0.029788852 0.034064054 -0.14014342 -0.13171265 0.07738334

0.bias f4 [10]
00000000: 699b 823e 4807 26be 0d1e 13be e8b2 443d
00000010: 402a f83d 900b 7cbe 606d 4d3c 3c88 753e
00000020: 6081 823c cd0f 50be
0.25509194 -0.16213715 -0.14366932 0.04802218 0.121174335 -0.24613786 0.012538284 0.2397775
0.015930831 -0.20318528

2.weight f4 [1, 10]
00000000: aa4f 503e a082 10be 24a0 e63d bdbc 9f3e
00000010: 61ba 8ebe ecdf 833d 485c e93d 37cd 72be
00000020: e0c7 283d 9fb6 98be
0.2034289 -0.1411233 0.11261013 0.31198683 -0.2787657 0.06439194 0.113945544 -0.23711096
0.04120624 -0.2982683
