neural_network_fenghua.pth (torch, 2207 bytes, 3 tensors)

0.weight f4 [10, 15]
0.23783156 0.013600796 -0.123179734 0.017899841 0.047911584 -0.12731844 0.07267517 -0.20960662
-0.1113016 -0.08825597 0.026410222 -0.030952752 -0.23493515 -0.25581303 0.21072054 -0.012896419
0.037190408 0.08596724 -0.12384051 0.19933754 -0.15633175 -0.25009298 -0.22604203 0.13343531
-0.21676722 0.085977644 -0.13660024 -0.12214504 0.10179275 -0.021763533 0.004161328 0.2433137
-0.2560773 0.06790912 -0.14212729 -0.0736531 -0.11648676 0.07318187 0.16842794 -0.252023
0.009747982 0.17172363 0.0014337599 -0.19574757 -0.19157243 0.2494438 0.10735583 0.11424509
0.12188968 0.0009647012 0.19119099 0.2091077 0.048957646 -0.20875621 0.0912894 -0.124601305
0.0040150583 -0.24803475 0.06838125 0.025351673 -0.22957395 -0.20355392 -0.13104413 0.14484537
0.16735095 -0.14037293 -0.2481712 -0.010381252 0.19097173 0.19962937 0.18678564 -0.09395139
0.16136399 0.01511845 0.11082241 0.21809676 0.18959934 -0.08053486 -0.020239472 0.0061077774
0.25135186 -0.062231973 0.2316846 -0.13827583 0.03490141 -0.24983358 -0.08740871 0.032723635
-0.15575776 0.014621019 0.24208257 0.059531778 -0.040851474 0.24579594 -0.18064666 -0.04995063
-0.04867682 -0.12805583 0.049328953 -0.13642058 0.23666298 0.096333236 0.047234744 0.07053438
0.20514706 0.016608924 0.10468924 0.06394005 -0.19872108 0.15673903 0.1886209 0.24447277
0.2375809 -0.059474245 -0.2035139 -0.15391582 0.20409301 0.02534774 0.14656895 -0.060441807
-0.15424828 0.13971105 0.038710743 0.036548346 0.22178498 -0.047053456 -0.24508043 0.19317576
-0.1059057 0.21219161 -0.08442181 0.09150791 -0.0053477287 -0.1882585 0.097789615 0.19683766
-0.08304073 0.0695346 0.06275296 -0.07151939 -0.22320202 0.2537783 0.08798733 0.21874362
-0.22412111 0.043663323 0.07078761 0.16298375 -0.014326572 0.2490842
00000000: 1e8a 733e e0d5 5e3c a845 fcbd b0a2 923c
00000010: f03e 443d c45f 02be b8d6 943d 1ea3 56be
00000020: 18f2 e3bd 8cbf b4bd 405a d83c a090 fdbc
00000030: d792 70be edf9 82be 20c7 573e 804b 53bc
00000040: f854 183d 980f b03d 18a0 fdbd 241f 4c3e
00000050: 6e15 20be 300c 80be 9077 67be 44a3 083e
00000060: 3af8 5dbe 0c15 b03d efe0 0bbe 2e27 fabd
00000070: b878 d03d 7049 b2bc c05b 883b 3a27 793e
00000080: 901c 83be f013 8b3d d189 11be 70d7 96bd
00000090: 9c90 eebd 60e0 953d 6078 2c3e 2909 81be
000000a0: 00b6 1f3c 52d8 2f3e 00ed bb3a 0d72 48be
000000b0: 902b 44be 326e 7f3e 60dd db3d 54f9 e93d
000000c0: 4ca1 f93d 00e4 7c3a 92c7 433e 5420 563e
000000d0: d087 483d 30c4 55be f0f5 ba3d f82e ffbd
000000e0: c090 833b d2fc 7dbe 780b 8c3d 50ae cf3c
000000f0: 6f15 6bbe 7070 50be 6f30 06be 5852 143e
00000100: 0c5e 2b3e ecbd 0fbe 9720 7ebe 2016 2abc
00000110: 188e 433e a46b 4c3e bc44 3f3e 9669 c0bd
00000120: 9a3c 253e 60b3 773c dcf6 e23d c254 5f3e
00000130: 5426 423e 76ef a4bd 40cd a5bc c023 c83b
00000140: 31b1 803e f4e6 7ebd ba3e 6d3e 2e98 0dbe
00000150: c8f4 0e3d 60d4 7fbe 5603 b3bd 3809 063d
00000160: f67e 1fbe 008d 6f3c 7ee4 773e 98d7 733d
00000170: e053 27bd eeb1 7b3e 70fb 38be 0899 4cbd
00000180: 5861 47bd 1121 03be 280d 4a3d d6b1 0bbe
00000190: c857 723e 5c4a c53d 3879 413d 5474 903d
000001a0: 1212 523e 700f 883c 5067 d63d 00f3 823d
000001b0: 8a7d 4bbe 3280 203e d625 413e 1257 7a3e
000001c0: 6848 733e 449b 73bd f365 50be 1c9c 1dbe
000001d0: c2fd 503e 10a6 cf3c 2c16 163e d491 77bd
000001e0: 43f3 1dbe 6a10 0f3e 288f 1e3d b8b3 153d
000001f0: 9a1b 633e 20bb 40bd 5df6 7abe decf 453e
00000200: 16e5 d8bd c248 593e 58e5 acbd 8068 bb3d
00000210: 003c afbb d6c6 40be ec45 c83d d08f 493e
00000220: 4211 aabd 2868 8e3d a084 803d c278 92bd
00000230: 128f 64be 3bef 813e b432 b43d 54fe 5f3e
00000240: 0180 65be 50d8 323d 18f9 903d 36e5 263e
00000250: 00ba 6abc ee0f 7f3e

0.bias f4 [10]
-0.15570585 0.20892596 0.2400128 0.010437578 -0.13711743 0.21207899 0.23397607 -0.119037375
0.21361777 -0.25473562
00000000: 5b71 1fbe b0f0 553e eac5 753e 6002 2b3c
00000010: 8368 0cbe 3c2b 593e 6c97 6f3e dec9 f3bd
00000020: 9ebe 5a3e b56c 82be

2.weight f4 [1, 10]
0.31048974 0.26102367 -0.25334495 0.044877917 0.0067545176 0.121932805 -0.1226303 -0.018397808
0.019315928 -0.2901735
00000000: 83f8 9e3e e5a4 853e 6eb6 81be e8d1 373d
00000010: 0055 dd3b e8b7 f93d 9825 fbbd 00b7 96bc
00000020: 703c 9e3c 9f91 94be
